car_detection_raw_audio_model.tflite (tflite, 76612 bytes, 9 tensors)

sequential_3/conv1d_9/BiasAdd/ReadVariableOp f4 [16]
0	0xbac21a0f	-0.0014808791
1	0xbac46aaa	-0.0014985402
2	0xba23b740	-0.0006245263
3	0x3cb690e1	0.02228588
4	0xbb8d34f7	-0.0043092924
5	0xbb2dd566	-0.00265249
6	0xbb9438b9	-0.0045233634
7	0xbabde92f	-0.001448905
8	0xbb55129f	-0.003251232
9	0xbb058a25	-0.002037653
10	0xbb1171cf	-0.002219308
11	0xbae009c4	-0.0017092754
12	0x3c8b900e	0.017036464
13	0xbad4aec0	-0.0016226396
14	0xbb8d9c10	-0.0043215826
15	0xbb02fdc8	-0.0019987691

sequential_3/conv1d_10/BiasAdd/ReadVariableOp f4 [32]
0	0xbc5f55fb	-0.013631339
1	0x3dd34e72	0.10317697
2	0xbc455192	-0.012043374
3	0x3d72e913	0.05930431
4	0xbbbe0570	-0.005798988
5	0xbc0fcef1	-0.008777366
6	0xbb868095	-0.0041046836
7	0x3c9c3c07	0.019071592
8	0xbbc48edd	-0.005998476
9	0xbb3debd4	-0.0028979676
10	0xbc0ec611	-0.008714215
11	0x3d7e6f03	0.062117588
12	0x3a850d5c	0.0010151076
13	0xbc4f5a57	-0.012655816
14	0xbb69b56e	-0.003566112
15	0xbc33276f	-0.010934695
16	0xbc10bda2	-0.0088342745
17	0xbc461e7e	-0.012092231
18	0x3d86f2bb	0.06589266
19	0x39113849	0.00013849245
20	0x3cbeb424	0.023279257
21	0xbbca6141	-0.0061761444
22	0xbbd661a2	-0.0065424005
23	0xbc176661	-0.009240718
24	0x3be5b603	0.007010223
25	0xbc3de2e4	-0.0115897395
26	0xbbdd796a	-0.0067588584
27	0xbaaff105	-0.001342327
28	0xbb6fd4a5	-0.0036595252
29	0xbbfae1ae	-0.0076562976
30	0x3d9e2e13	0.07723632
31	0xbc200ab8	-0.009768181

sequential_3/conv1d_11/BiasAdd/ReadVariableOp f4 [64]
0	0x3da4bea9	0.08044178
1	0xbc41f033	-0.011837053
2	0xb9c729e6	-0.00037987455
3	0x3daf11ab	0.08548292
4	0x3d430433	0.047611427
5	0xbc273cf4	-0.010207403
6	0x3db08408	0.08618933
7	0x3daa4138	0.08313221
8	0xbb4ef88b	-0.0031581249
9	0xbd8379aa	-0.0641969
10	0x3a9fe83a	0.0012199946
11	0x3d002523	0.031285416
12	0xbc1f4678	-0.009721391
13	0xbc8b50b3	-0.017006254
14	0xbc5dc40a	-0.013535509
15	0x3c05ceae	0.008166952
16	0x3d2a96a2	0.04164756
17	0x3d38483f	0.044990774
18	0x3c8519bf	0.016247628
19	0x3d9f3a9e	0.07774852
20	0xbc2ba9e0	-0.010477513
21	0x3c37e9b2	0.011225151
22	0xba6bf4c6	-0.00090010127
23	0xbb971b45	-0.004611405
24	0x3da47704	0.08030513
25	0xba0dd09c	-0.00054098084
26	0xbcd7ea7f	-0.026356934
27	0xbcdc0648	-0.026858464
28	0x3c4e8592	0.012605088
29	0xbb266a95	-0.0025393118
30	0xbc198bf1	-0.009371744
31	0xbb0db197	-0.0021620744
32	0x3c9e56cd	0.0193285
33	0x3c202332	0.009774016
34	0x3d9d19f3	0.07670965
35	0xbcb6fba9	-0.022336798
36	0x3da7758d	0.08176718
37	0xbcb53d87	-0.022124065
38	0xbc913597	-0.017725749
39	0xbc1bb286	-0.0095030125
40	0xbc61e98b	-0.013788591
41	0xbbadefcd	-0.0053081275
42	0xbb7c879f	-0.0038532985
43	0x3d046cbb	0.032330256
44	0xbc285a07	-0.01027537
45	0x3c5f966e	0.013646705
46	0xbd1ba8c5	-0.038002748
47	0xbbaadbe6	-0.005214202
48	0x3b3eaa21	0.0029093104
49	0x3d937a7a	0.07201095
50	0x3db50716	0.08839242
51	0x3a90c114	0.001104387
52	0x3d9d71e6	0.0768774
53	0xbbc024bb	-0.0058637536
54	0xbba0342a	-0.004889031
55	0x3d9163ea	0.07099135
56	0x3d46685c	0.04843937
57	0xbb3c1de3	-0.0028704337
58	0x3daee951	0.08540595
59	0xbbb6034f	-0.0055545936
60	0x3d8e0697	0.06934851
61	0xbbd232c6	-0.006414744
62	0xbca5c868	-0.020237163
63	0xbc696363	-0.014244887

sequential_3/conv1d_9/Conv1D f4 [16, 1, 9, 1]
0	0xbda758aa	-0.08171208
1	0xbdf22dbe	-0.11825131
2	0xbcb128fe	-0.021625992
3	0x3e12fc74	0.14354116
4	0xbe5abd06	-0.21361169
5	0xbe322940	-0.17398548
6	0xbd9d3ca3	-0.07677581
7	0xbdddc88a	-0.108292654
8	0x3e26fed0	0.16308141
9	0x3df9e1f1	0.12201298
10	0xbda73c3e	-0.08165787
11	0xbe3b5591	-0.1829436
12	0xbd3a941d	-0.045551408
13	0xbddf3536	-0.10898821
14	0x3dd1648d	0.10224257
15	0x3d5b6061	0.05355871
16	0xbe57fd21	-0.21092655
17	0xbdd7f3a4	-0.10544518
18	0xbe5d838b	-0.21632211
19	0xbe000653	-0.12502412
20	0x3cd0ec21	0.02550322
21	0xbddb4cb1	-0.10707987
22	0x3e1eb466	0.15498504
23	0xbde33c38	-0.1109547
24	0x3db4bda6	0.08825235
25	0x3e1801f5	0.14844497
26	0x3c110060	0.008850187
27	0xbda8168e	-0.08207427
28	0x3d17c986	0.037057422
29	0x3ddab220	0.10678506
30	0xbe07b773	-0.13253574
31	0xbe3e70ae	-0.18597671
32	0x3cd3e889	0.025867717
33	0xbdea2384	-0.11432555
34	0xbe0a9bfa	-0.13536063
35	0xbd88a9b3	-0.066729926
36	0xbdf5cedb	-0.12002345
37	0x3d8293b3	0.06375828
38	0x3e0ffd90	0.1406157
39	0x3e495c1d	0.19664045
40	0x3e27db13	0.16392164
41	0x3e8275a3	0.25480375
42	0x3d5bde5f	0.053678866
43	0x3e5e646d	0.21717997
44	0x3dd7f130	0.1054405
45	0x3b9b47f3	0.0047388016
46	0xbe0a53ac	-0.13508481
47	0xbe0ddda5	-0.13854082
48	0xbdcbd0ea	-0.099519566
49	0x3dd17a86	0.102284476
50	0xbe28c8ac	-0.164828
51	0xbe5a2b37	-0.21305548
52	0xbe06ccd7	-0.13164078
53	0x3dd8487b	0.105606996
54	0xbe0ce38e	-0.1375868
55	0xbe4c5285	-0.19953354
56	0xbcc93a0b	-0.02456381
57	0xbde58126	-0.11206274
58	0xbe7cf9b1	-0.24704625
59	0xbdab5ebe	-0.0836768
60	0xbe05ff85	-0.13085754
61	0xbd7a9b3d	-0.061183203
62	0xbe3490dc	-0.17633384
63	0x3d3f24ad	0.046665836
64	0xbd87c288	-0.06628901
65	0xbe04f98e	-0.12985823
66	0x3df0cc59	0.11757726
67	0x3e571cb0	0.21007037
68	0x3ae70bf2	0.0017627461
69	0x3d91ee44	0.07125524
70	0x3e7f8522	0.2495313
71	0xbcac1865	-0.021007726
72	0xbe327f80	-0.1743145
73	0xbdc6deb4	-0.09710446
74	0xbe65a04e	-0.22424433
75	0xbd6c43b7	-0.057681765
76	0xbcafd329	-0.021462994
77	0xbce891e5	-0.02838988
78	0xbe539a34	-0.20664293
79	0xbae0c5f8	-0.0017148843
80	0x3d46e4ed	0.048558164
81	0xbb79594e	-0.0038047615
82	0x3d0fb0a9	0.035080586
83	0x3e53fa76	0.20701012
84	0x3e4bfef1	0.19921471
85	0x3e3a141a	0.1817173
86	0x3dafcf24	0.08584431
87	0xbd5b0c99	-0.05347881
88	0xbced89cf	-0.028996376
89	0xbd7a70a6	-0.061142586
90	0xbe416873	-0.188875
91	0xbdfa794b	-0.12230166
92	0xbe45d2d2	-0.19318703
93	0xbdcd686d	-0.10029683
94	0xbdcb0162	-0.09912373
95	0xbe0f50d4	-0.13995677
96	0x3dfe2918	0.12410182
97	0xbcef1e9e	-0.029189404
98	0xbdb02a85	-0.0860186
99	0xbe1cd95c	-0.15317291
100	0x3c0b4f84	0.008502845
101	0x3ba471c6	0.0050184457
102	0xbd8f6848	-0.07002312
103	0xbda27210	-0.07931912
104	0x3dcb4335	0.09924928
105	0xbe3cd160	-0.18439245
106	0xbe11f32b	-0.14252917
107	0x3d15e113	0.0365916
108	0x3c3ee2fb	0.011650796
109	0x3e1424b3	0.14467125
110	0x3e6ddbf2	0.23228434
111	0x3df3ca82	0.1190386
112	0x3e296b73	0.16544895
113	0x3d0c5230	0.034258068
114	0x3d94a54e	0.07258092
115	0xbcbb733b	-0.022882095
116	0x3e08f0fc	0.13373178
117	0x3e57e20c	0.21082324
118	0x3e4d59bf	0.20053767
119	0x3ce970b2	0.02849612
120	0x3e2880c8	0.16455376
121	0xbde88f55	-0.113554634
122	0x3ccca698	0.024981782
123	0x3d4e9569	0.050435457
124	0x3d0bfa93	0.034174513
125	0xbe033e74	-0.12816793
126	0x3e4af42b	0.19819705
127	0xbc0b93d0	-0.008519128
128	0x3e4bd1e0	0.1990428
129	0x3e5397b7	0.20663343
130	0x3dae0470	0.0849694
131	0x3e533bd9	0.20628299
132	0xbd9c6ab9	-0.07637543
133	0x3e786889	0.24258627
134	0x3d20df9d	0.039275754
135	0xbddff508	-0.10935408
136	0x3d260aac	0.04053752
137	0x3e714fcf	0.23565601
138	0x3e14e717	0.14541279
139	0xbdf6a890	-0.120438695
140	0x3d8d0915	0.06886498
141	0xbdb716ac	-0.08939871
142	0x3e7f2c65	0.24919279
143	0x3e456a18	0.19278753

sequential_3/conv1d_10/Conv1D f4 [32, 1, 5, 16]
0	0x3e0ba227	0.13636075
1	0xbcf61b76	-0.030042391
2	0x3d6bc1ff	0.057558056
3	0xbd245c81	-0.04012728
4	0xbd978a09	-0.07399375
5	0x3e2d5390	0.16926408
6	0x3e33f79a	0.17574921
7	0x3c861ea0	0.016372025
8	0x3dfa3cca	0.12218626
9	0x3e2ceca0	0.1688714
10	0x3de94bf2	0.113914385
11	0x3dd7c9a0	0.10536504
12	0xbdff0b99	-0.12453384
13	0x3e53f283	0.2069798
14	0xbc5723ac	-0.013131063
15	0x3df7e331	0.1210388
16	0xbd96f2f6	-0.0737056
17	0xbd8e7d76	-0.069575235
18	0xbce70f2d	-0.028205479
19	0x3dfaed26	0.12252264
20	0xbdc02d16	-0.093835995
21	0x3ceed0ec	0.029152356
22	0x3de7e9f3	0.11323919
23	0x3e064c4f	0.13115047
24	0x3ca062c1	0.01957834
25	0x3dec7308	0.11545378
26	0x3d9f3a5a	0.077748016
27	0x3c977f4b	0.018493315
28	0x3de270c4	0.110566646
29	0xbd18b1e7	-0.037279036
30	0xbb7da851	-0.003870506
31	0xbd1ee14c	-0.03878908
32	0xbd5bebc6	-0.053691648
33	0xbda18102	-0.078859344
34	0xbd4b1cb8	-0.049587935
35	0x3e3ba9cc	0.18326491
36	0xbdab876a	-0.083754376
37	0xbd3e1d74	-0.046414807
38	0x3e48e633	0.19619064
39	0x3d64c238	0.055849284
40	0x3e3c5072	0.18390062
41	0xbc886974	-0.016651846
42	0x3de93a11	0.113880284
43	0x3d39b2a2	0.045336373
44	0x3e3a5dae	0.18199798
45	0x3d678aba	0.056528784
46	0xbd6f33bd	-0.05839895
47	0x3d6dd556	0.05806478
48	0x3e37efa6	0.17962512
49	0x3d35dab2	0.044398017
50	0x3da076b5	0.078351416
51	0x3d8f6438	0.07001537
52	0x3deada91	0.114674695
53	0x3d7da891	0.061928336
54	0x3e57d749	0.21078219
55	0x3df5026f	0.11963355
56	0x3db7a371	0.08966721
57	0x3e17fd57	0.14842735
58	0x3d293e3d	0.04131912
59	0xbce22663	-0.027606195
60	0x3d282dec	0.04105942
61	0xbd3a54a2	-0.04549087
62	0x3e11ab92	0.14225605
63	0x3e3a151b	0.18172114
64	0x3e1b6ea7	0.1517893
65	0x3e487166	0.19574508
66	0xbd517d42	-0.051144846
67	0x3e2daab3	0.16959648
68	0x3d838af3	0.06422987
69	0x3e0385b7	0.12843977
70	0xbdc57a17	-0.096424274
71	0x3ceba845	0.02876676
72	0x3dee0454	0.11621919
73	0x3d473447	0.04863384
74	0x3bb90b8e	0.0056471294
75	0x3dae0294	0.084965855
76	0xbde07c34	-0.1096119
77	0x3e2e24fc	0.17006296
78	0x3e371b53	0.17881517
79	0x3e22e8cd	0.15909119
80	0x3bdbeb41	0.006711394
81	0x3e1123d5	0.14173825
82	0xbdc0db1b	-0.09416791
83	0x3e1d5729	0.1536528
84	0xba715aca	-0.0009206949
85	0x3d84c08f	0.0648204
86	0x3d4c3fa3	0.049865376
87	0xbd52d4ff	-0.05147266
88	0x3df9c1c8	0.12195164
89	0x3dee1c26	0.11626463
90	0x3db67de2	0.08910729
91	0xbb5383af	-0.0032274534
92	0xbd3f1c1b	-0.046657663
93	0xbe04fc34	-0.12986833
94	0x3e107945	0.1410876
95	0x3dad93bd	0.084754445
96	0x3d106f81	0.03526259
97	0x3cb066bd	0.021533364
98	0x3d6bcb80	0.05756712
99	0x3d44f8a4	0.048088685
100	0x3de1f037	0.110321455
101	0x3e095304	0.13410574
102	0x3e1fcf90	0.15606523
103	0xbddd8aaa	-0.10817464
104	0xbdaae79e	-0.08344959
105	0x3d161cfb	0.03664873
106	0xbde39582	-0.11112501
107	0x3dc043e4	0.09387949
108	0x3e60b15f	0.21942662
109	0xbda0b7c8	-0.078475535
110	0x3df0e199	0.11761779
111	0x3d78d498	0.06074962
112	0x3e2701ad	0.16309233
113	0x3e0e4a3d	0.13895507
114	0x3e060bf9	0.13090505
115	0x3e75a804	0.23989874
116	0x3dfabda2	0.12243201
117	0x3da13ea4	0.07873276
118	0x3ddb6135	0.107119
119	0x3dc6baeb	0.097036205
120	0x3de8f1db	0.11374255
121	0x3d9b6b22	0.07588793
122	0x3de1496a	0.11000331
123	0x3d9be5ba	0.07612176
124	0xbd9fd4e4	-0.078042775
125	0x3d2e44e8	0.042546183
126	0x3bb980dd	0.0056611137
127	0xbd029694	-0.031881884
128	0x3dc96af8	0.09834856
129	0x3e0b629e	0.13611838
130	0xbdf960d5	-0.12176672
131	0x3e03b6fc	0.12862772
132	0xbd2ff2d2	-0.04295618
133	0xbc8681d6	-0.016419332
134	0xbd186f75	-0.03721567
135	0x3de90dc3	0.11379578
136	0xbc940908	-0.018070713
137	0xbe0b7286	-0.13617906
138	0xbda17be0	-0.078849554
139	0x3d9107bc	0.07081553
140	0x3e0d854b	0.13820378
141	0x3db27d33	0.08715286
142	0xbda05370	-0.078284144
143	0xbe063f41	-0.13110067
144	0x3d2be8c6	0.041970037
145	0x3d5be5be	0.053685896
146	0x3cd31847	0.025768412
147	0x3e3fda70	0.18735671
148	0x3dc32f26	0.09530477
149	0x3d7d12f2	0.061785646
150	0x3e21fbb7	0.15818678
151	0xbb071f18	-0.0020617899
152	0xbd604d41	-0.054761175
153	0xbc992558	-0.018694565
154	0xbde11104	-0.109895736
155	0x3c99e170	0.018784255
156	0x3e142d9c	0.14470524
157	0xbd7c36f4	-0.061575845
158	0xbde9f230	-0.11423147
159	0x3d1106dc	0.035406932
160	0x3db9792a	0.09056313
161	0x3dbeb5ad	0.09311996
162	0xbdcef353	-0.10105004
163	0xbca9d467	-0.020731164
164	0x3e18278b	0.14858834
165	0xbca7eba9	-0.020498114
166	0xbd388b8d	-0.04505496
167	0xba11b5e2	-0.00055584137
168	0xbc39f868	-0.011350729
169	0xbc16d230	-0.009205386
170	0xbd2fbdb9	-0.042905543
171	0x3c6a5c37	0.014304212
172	0x3c82abdb	0.015951088
173	0x3b259238	0.0025264155
174	0xbce5e693	-0.028064048
175	0xbdb3c49e	-0.08777736
176	0xbd8d331e	-0.068945155
177	0xbce7dcc4	-0.028303511
178	0xbd0f569c	-0.034994707
179	0xbd43fc31	-0.04784793
180	0xbe22302e	-0.15838692
181	0x3df33de9	0.11877043
182	0x3deb7ab4	0.11498013
183	0x3db5d8d6	0.08879249
184	0xbd1bb94b	-0.038018506
185	0x3b9fc892	0.0048762048
186	0x3dd3e3aa	0.10346158
187	0x3e10c477	0.14137445
188	0x3cb12fd4	0.021629252
189	0xbe066d81	-0.1312771
190	0x3da43a20	0.08018899
191	0xbdffbc4f	-0.12487089
192	0xbdb5294f	-0.088457696
193	0x3d821d5f	0.06353258
194	0x3deac603	0.11463549
195	0xbde53495	-0.1119167
196	0x3dfb058b	0.122569166
197	0xbe11043a	-0.14161769
198	0xbe25b59e	-0.16182563
199	0x3dfe0b88	0.12404543
200	0xbd941319	-0.07230205
201	0x3e0c9ddc	0.13732094
202	0xbdf4f31a	-0.119604304
203	0xbd144e08	-0.03620723
204	0xbe118ce0	-0.14213896
205	0xbdbbc3aa	-0.09168179
206	0xbe175591	-0.14778735
207	0xbdfcc35c	-0.12341949
208	0x3dea9d8e	0.114558324
209	0x3c8596c1	0.016307237
210	0x3e035ca8	0.12828314
211	0xbcfa7c8b	-0.030576965
212	0xbbc7576d	-0.00608342
213	0x3e12db02	0.14341357
214	0x3df89a72	0.12138833
215	0xbe055d05	-0.13023765
216	0xbc008a25	-0.007845436
217	0x3de7b379	0.113135286
218	0xbda89980	-0.08232403
219	0x3c74dec1	0.014945687
220	0xbcba5b18	-0.022748515
221	0x3dec9d12	0.11553396
222	0xbcd48217	-0.025940938
223	0x3de9a5a7	0.11408549
224	0x3dc08275	0.09399883
225	0x3d7579de	0.059930675
226	0xbdbddc35	-0.09270517
227	0xbe0ffd0d	-0.14061375
228	0xbdce56c0	-0.1007514
229	0xbccf4132	-0.025299642
230	0xbc8243c2	-0.01590145
231	0x3c13dfb9	0.009025508
232	0x3e056696	0.13027415
233	0x3e119613	0.14217405
234	0xbd0dbcbf	-0.03460383
235	0x3e032e1f	0.12810563
236	0xbe021aa5	-0.12705477
237	0x3dcb2480	0.09919071
238	0xbd306496	-0.043064676
239	0xbd220cde	-0.039563052
240	0x3e1d5839	0.15365686
241	0x3e0a562a	0.13509431
242	0xbde6afe6	-0.11264019
243	0x3ddbf8c6	0.10740809
244	0x3d093dc5	0.033506174
245	0x3d8d61cd	0.0690342
246	0xbde8ca43	-0.11366703
247	0x3e2dc02b	0.16967838
248	0x3c96cab1	0.018407198
249	0x3ddff67b	0.10935684
250	0x3de7db08	0.11321074
251	0x3dde2c81	0.10848332
252	0x3daf01a2	0.08545233
253	0x3e152be6	0.14567527
254	0xbcce6536	-0.025194746
255	0x3d4c69e0	0.049905658

sequential_3/conv1d_11/Conv1D f4 [64, 1, 3, 32]
0	0xbe35df14	-0.17760879
1	0x3e2b5eeb	0.16735427
2	0x3d9fb4a7	0.077981286
3	0x3dd4b053	0.10385194
4	0xbd8108a8	-0.06300479
5	0xbb8e7a92	-0.0043481076
6	0xbd5db02e	-0.054123096
7	0x3d900c22	0.07033564
8	0xbe28b3f9	-0.16474904
9	0xbe556176	-0.2083796
10	0xbe093057	-0.13397346
11	0xbc24a4fe	-0.010049103
12	0x3dcb03cd	0.09912834
13	0x3ce3c182	0.027802233
14	0xbe33d4f6	-0.17561707
15	0xbd8ac380	-0.0677557
16	0x3e044d6f	0.12920164
17	0x3d5c949a	0.053852655
18	0x3e41cccf	0.18925785
19	0xbdaca9fb	-0.08430859
20	0x3decdb7b	0.115653
21	0x3dd18af6	0.10231583
22	0xbe25ce15	-0.16191895
23	0x3b2084f0	0.00244933
24	0xbe207673	-0.15670185
25	0xbd20f7dc	-0.039298877
26	0x3d090a70	0.03345722
27	0x3d1c62c0	0.038180113
28	0xbbd8675a	-0.0066041173
29	0x3c08a04f	0.008339002
30	0x3ddab2a0	0.10678601
31	0xbd21bde8	-0.03948775
32	0xbde690a9	-0.112580605
33	0x3e0ccb91	0.1374953
34	0x3cb5dbe4	0.022199579
35	0xbcffbfff	-0.03121948
36	0xbe501ddd	-0.20323892
37	0xbdab1c13	-0.08354964
38	0x3d09f896	0.033684336
39	0x3d8f5cea	0.07000144
40	0xbde8fa1b	-0.11375829
41	0xbe46ea3d	-0.19425292
42	0xbc8251ca	-0.01590814
43	0xbd0d3801	-0.034477238
44	0xbd9ff93d	-0.0781121
45	0xbdc1d12a	-0.09463723
46	0xbbdfbe9f	-0.0068281437
47	0xbdd05eb3	-0.101743124
48	0x3c39c6c3	0.011338892
49	0x3d818c98	0.06325644
50	0x3e6fb290	0.2340796
51	0xbe45e3b1	-0.19325139
52	0x3d2f0047	0.042724874
53	0xbdcf980a	-0.10136421
54	0xbe23e763	-0.16006236
55	0xbccdacdf	-0.025106845
56	0xbe14ee33	-0.14543991
57	0xbd852ed9	-0.06503076
58	0x3d985edd	0.07439969
59	0x3d351c09	0.04421619
60	0xbe43a262	-0.19104913
61	0xbe13752d	-0.14400168
62	0x3e725007	0.2366334
63	0xbe24bbb8	-0.16087234
64	0xbcd8b83e	-0.026455041
65	0x3dc897b4	0.0979456
66	0x3e185580	0.14876366
67	0xbd9b92a5	-0.075963296
68	0x3d9c7663	0.07639768
69	0x3cbbca17	0.022923512
70	0xbc632c2a	-0.01386551
71	0xbafac6ff	-0.0019132792
72	0xbe18f03e	-0.14935395
73	0xbac85ce0	-0.0015286468
74	0xbe2f0088	-0.17090046
75	0x3e4818bd	0.19540687
76	0x3c8a29ce	0.016865637
77	0xbe2d0382	-0.1689587
78	0xbd6c0538	-0.057622164
79	0xbdbe642a	-0.092964485
80	0x3d65dc4b	0.05611829
81	0xbd1cfb27	-0.038325455
82	0xbc716eb0	-0.014735863
83	0x3d471102	0.048600204
84	0x3d9eaf8c	0.07748327
85	0xbe00ddca	-0.12584606
86	0xbe0a1b68	-0.13487017
87	0xbd366fa3	-0.04454006
88	0xbe300ebf	-0.17193125
89	0x3ce15716	0.027507346
90	0xbcf79a78	-0.030225024
91	0xbdfb294d	-0.12263737
92	0xbe458845	-0.19290264
93	0xbe110bf4	-0.14164716
94	0x3cdc2795	0.026874343
95	0x3d081c1d	0.033229936
96	0x3e1e3c2f	0.15452646
97	0x3e3132fa	0.17304602
98	0x3df2b7ee	0.11851488
99	0x3d38d2a6	0.045122765
100	0xbcb19080	-0.021675348
101	0xbd34e873	-0.044166993
102	0x3cc05ee8	0.023482755
103	0xba0e63e0	-0.00054317527
104	0x3e0e5e75	0.1390322
105	0x3ddcca18	0.10780734
106	0x3e3fb7e0	0.18722486
107	0x3dc96185	0.098330535
108	0x3e1b3de6	0.15160331
109	0x3d83f1e6	0.06442623
110	0x3c3c3d17	0.011489174
111	0x3d9dd219	0.077060886
112	0x3cf6c7b5	0.030124525
113	0x3dbd79d0	0.092517495
114	0xbe04a6c3	-0.1295424
115	0x3e2ad5d1	0.16683127
116	0x3cd9a190	0.026566297
117	0x3b44bc8e	0.0030019614
118	0xbd74480f	-0.059639033
119	0xbd9878c7	-0.074449115
120	0xbd87dd17	-0.066339664
121	0x3db7b5a3	0.08970191
122	0x3e28cb7c	0.16483873
123	0xbd6175c1	-0.05504394
124	0x3d24118e	0.040055804
125	0x3cabc60a	0.020968456
126	0xbd1c2333	-0.038119506
127	0x3d67497a	0.056466557
128	0xbd568780	-0.052375317
129	0x3e0cdbc3	0.13755707
130	0x3de7eb19	0.11324138
131	0xbd57c80f	-0.052681025
132	0x3e111437	0.14167868
133	0x3ddced47	0.107874446
134	0xbd8c3714	-0.06846443
135	0xbd9d744f	-0.076882
136	0x3e1c5fc9	0.15270914
137	0x3d97152a	0.073770836
138	0x39ae1c62	0.00033209013
139	0x3d62b118	0.05534467
140	0xbd990b8f	-0.07472908
141	0x3e240a93	0.16019659
142	0x3d8b88a5	0.06813172
143	0x3e295aa0	0.16538477
144	0xbd68c173	-0.056825113
145	0xbd584ecc	-0.05280952
146	0xbd76bda8	-0.060239464
147	0xbc8fd131	-0.017555805
148	0xbdc6cc95	-0.0970699
149	0x3d8a94ce	0.067666635
150	0xbdb4e4af	-0.088326804
151	0x3e09ba8a	0.13450065
152	0xbc497f55	-0.012298425
153	0x3dc33783	0.095320724
154	0x3deaf49f	0.11472439
155	0x3e286ed0	0.16448522
156	0x3e1480a9	0.14502205
157	0xbd7a789f	-0.06115019
158	0xbe1ba9a9	-0.15201439
159	0x3e267c6a	0.16258398
160	0x3cc77ef7	0.024352534
161	0xbdc8af9a	-0.09799118
162	0xbd6f85e7	-0.05847731
163	0x3d2cb4bf	0.04216456
164	0xbd7b6e4b	-0.06138448
165	0x3d0648cf	0.03278428
166	0x3db9cf15	0.09072701
167	0xbddcd1e9	-0.10782225
168	0xbdc773e2	-0.097389
169	0x3d999c8b	0.07500561
170	0x3e1c8089	0.15283407
171	0x3cbf6c98	0.023367211
172	0xbcc2d8af	-0.023784963
173	0xbd7ca8fa	-0.061684586
174	0x3da2201a	0.07916279
175	0x3e105d52	0.14098099
176	0x3d9d6e6c	0.07687077
177	0x3e385580	0.18001366
178	0x3a96e974	0.0011513666
179	0x3cda72ed	0.026666129
180	0x3d239b65	0.039943118
181	0x3cdd19f2	0.02698991
182	0x3e272209	0.16321577
183	0xbd200c17	-0.03907403
184	0x3e3db5de	0.18526408
185	0xbc3facbe	-0.0116989
186	0x3e282d75	0.1642359
187	0x3e2f0a28	0.17093718
188	0x3dbcf809	0.092269965
189	0x3db71f8e	0.089415655
190	0x3cf9cb4d	0.03049245
191	0x3d46b61a	0.04851351
192	0xbd39460f	-0.04523283
193	0x3dce8522	0.10083987
194	0x3cdcfbc4	0.02697552
195	0x3e15f979	0.14645948
196	0x3c73ff28	0.014892377
197	0x3e027899	0.12741317
198	0x3c869e48	0.016432896
199	0x3dadde94	0.08489719
200	0x3e0ebbd6	0.13938841
201	0x3cf423fc	0.029802315
202	0x3d66207c	0.056183323
203	0xbd419b7a	-0.047267415
204	0x3e1ccba3	0.15312056
205	0x3dc02d43	0.09383633
206	0x3d2a4cb4	0.041577056
207	0x3dbafe6c	0.09130558
208	0xbd2795ea	-0.040914454
209	0x3e295422	0.16536
210	0x3dd2478d	0.102675535
211	0x3e010195	0.1259826
212	0xbdcb81a1	-0.09936834
213	0x3d8fe761	0.07026554
214	0xbd07b0b2	-0.033127494
215	0xbdbb1c28	-0.0913623
216	0x3d847d63	0.06469228
217	0x3df86f7c	0.12130639
218	0x3aa1dc2a	0.0012348939
219	0x3e33cb0c	0.17557925
220	0xbd9bec19	-0.076133914
221	0x3d42fea8	0.04760614
222	0xbd99f154	-0.07516733
223	0xbdbaac16	-0.09114854
224	0x3d82e178	0.06390661
225	0x3c737ad8	0.014860831
226	0x3de3ef35	0.111296095
227	0xbcc8a759	-0.02449386
228	0x3db46f64	0.088103086
229	0x3ce33dd5	0.027739445
230	0x3e26a6fe	0.1627464
231	0xbbbea851	-0.0058184047
232	0xbd738e5d	-0.05946194
233	0x3cfd62a9	0.030930834
234	0x3d9b9d65	0.0759838
235	0xbdda7edd	-0.106687285
236	0xbdf1af8e	-0.118010625
237	0x3cfe018d	0.031006599
238	0x3dbfc9b4	0.09364644
239	0xbdb37de1	-0.08764244
240	0xbdcc777d	-0.09983728
241	0x3caee970	0.021351546
242	0x3d81dbde	0.063407645
243	0x3e0e6e90	0.13909364
244	0xbd83d614	-0.064373165
245	0xbdc0de39	-0.094173856
246	0x3e194955	0.1496938
247	0x3dcd1d45	0.10015348
248	0xbd2e6d65	-0.042584796
249	0xbd999c12	-0.07500471
250	0x3e365f52	0.178098
251	0x3d45cd04	0.04829122
252	0x3e0cb6c7	0.13741599
253	0x3d9a7ae9	0.075429745
254	0xbdec71dc	-0.115451545
255	0xbdd32959	-0.10310621

sequential_3/dense_6/BiasAdd/ReadVariableOp f4 [128]
0	0xbc0d4bfe	-0.008624075
1	0xbc900a71	-0.017583104
2	0x3da5a8a0	0.08088803
3	0xbbc17e0a	-0.0059049176
4	0x00000000	0.0
5	0xbb790d47	-0.0038002299
6	0x3d8e28dd	0.06941388
7	0xba7f9244	-0.00097492733
8	0xbc503c64	-0.012709711
9	0x3d91f0ea	0.07126029
10	0xbca98a35	-0.020695785
11	0x3d7cb149	0.06169251
12	0x3af9f765	0.0019070922
13	0x3b038f55	0.0020074446
14	0x00000000	0.0
15	0x3d8a1563	0.067423604
16	0x3d8f185b	0.06987067
17	0x3d5c2cb9	0.05375359
18	0xbcc0c2b7	-0.023530347
19	0xbc584ec4	-0.013202373
20	0x3d946bf4	0.07247153
21	0xbbb61d20	-0.005557671
22	0xbbf803e0	-0.0075688213
23	0x00000000	0.0
24	0xbc415e5f	-0.011802285
25	0xbc01045a	-0.007874573
26	0xbb720036	-0.0036926395
27	0xbc5bdaf1	-0.013418899
28	0xbbdfaf18	-0.0068262927
29	0xbcb55f04	-0.022140034
30	0x3d8bb20a	0.06821068
31	0xbc995a09	-0.01871969
32	0xbca6ce4a	-0.020362038
33	0xbc9d8f85	-0.019233475
34	0xbc436a84	-0.011927251
35	0xbbde4f1f	-0.0067843343
36	0x00000000	0.0
37	0x00000000	0.0
38	0x3d66515e	0.05622994
39	0xbca27ce4	-0.019834943
40	0xbca235af	-0.019800989
41	0xbc024b0c	-0.007952463
42	0xbccacfbf	-0.024757264
43	0x3d878db9	0.06618828
44	0x3c746c0e	0.01491834
45	0xbd1b848f	-0.037968215
46	0x3d2fa4da	0.042881824
47	0xbbfb1773	-0.0076627075
48	0x3d73347f	0.059376236
49	0x3c6a3b98	0.014296435
50	0xbbb61abe	-0.005557387
51	0xbc9d4b52	-0.019200955
52	0x00000000	0.0
53	0xbca30e91	-0.019904407
54	0xbca4b641	-0.020106437
55	0xbb193b3f	-0.002338126
56	0x3da3ae39	0.07992215
57	0xbc08cdbd	-0.008349833
58	0xbbc49e6b	-0.00600033
59	0x3acdc453	0.0015698768
60	0xbbc4b706	-0.0060032634
61	0xbbafa6e6	-0.005360472
62	0x3d6e0894	0.05811365
63	0x3d87e45d	0.06635354
64	0xbbb20f87	-0.00543398
65	0x3d7d68b9	0.06186745
66	0x3d830024	0.06396511
67	0x3d73def2	0.05953879
68	0xbc311542	-0.010808291
69	0x3d6a3ee7	0.057188895
70	0xbc4eefea	-0.012630442
71	0x3d807d70	0.06273925
72	0x3dabf2e7	0.08395939
73	0x00000000	0.0
74	0x3c017b1e	0.007902889
75	0x00000000	0.0
76	0x3bd60389	0.006531183
77	0x00000000	0.0
78	0x00000000	0.0
79	0x00000000	0.0
80	0xbc37be80	-0.011214852
81	0xbbb60e88	-0.0055559315
82	0xbb0e9a0b	-0.0021759297
83	0x3da53fb1	0.08068789
84	0xbbb1cd2a	-0.005426069
85	0x00000000	0.0
86	0xbc0998de	-0.008398263
87	0x3d827dbf	0.063716404
88	0xbd055286	-0.032549404
89	0x00000000	0.0
90	0x3d4988a9	0.049202595
91	0xbc19d820	-0.009389907
92	0x3b0cf06e	0.0021505612
93	0xbc28a42f	-0.010293051
94	0x00000000	0.0
95	0xbc263e18	-0.01014664
96	0xbb517a31	-0.00319637
97	0x3b88d65f	0.0041759457
98	0x00000000	0.0
99	0xbc7f3c64	-0.015578363
100	0xbc6e2869	-0.014536002
101	0x3ca2ac67	0.019857598
102	0x00000000	0.0
103	0xbc6fbc69	-0.014632323
104	0x3d8808c4	0.06642297
105	0x3d70fc80	0.058834553
106	0x3d8417a2	0.0644982
107	0x00000000	0.0
108	0x00000000	0.0
109	0xbc28be37	-0.010299257
110	0x00000000	0.0
111	0x00000000	0.0
112	0xbc3d9cf3	-0.011573064
113	0xbd25c59d	-0.04047166
114	0xbc2f0acd	-0.010683727
115	0xbce245cb	-0.02762117
116	0x00000000	0.0
117	0xbbcf1d4d	-0.0063206316
118	0x3d674523	0.05646242
119	0xbc1a9bf1	-0.009436593
120	0xbc3287f4	-0.010896672
121	0xbc9d8f75	-0.019233445
122	0x00000000	0.0
123	0x3d77e323	0.06051935
124	0x3d806d9e	0.06270908
125	0xbc51d382	-0.012806775
126	0xbca45737	-0.020061119
127	0x00000000	0.0

sequential_3/dense_6/MatMul f4 [128, 64]
0	0xbda95863	-0.082688116
1	0x3e304d79	0.17217053
2	0x3e54ca5e	0.20780322
3	0xbe3573ff	-0.1772003
4	0xbda0913e	-0.07840203
5	0x3c8e93b0	0.017404407
6	0xbe517c4b	-0.2045757
7	0xbcb857cb	-0.0225028
8	0x3e320edb	0.1738848
9	0xbc81f647	-0.015864505
10	0xbb8640b4	-0.0040970687
11	0x3da86988	0.082232535
12	0xbe1229dd	-0.14273782
13	0x3df6cc71	0.12050713
14	0x3e15343c	0.14570707
15	0x3d4710d9	0.04860005
16	0xbd461983	-0.048364174
17	0xbd6fe878	-0.05857131
18	0x3e503f85	0.20336731
19	0x3c646505	0.013940101
20	0xbd7818da	-0.060570575
21	0x3cbc5588	0.022990003
22	0x3d60c72f	0.054877456
23	0x3dbd3fef	0.0924071
24	0xbe6ebb16	-0.23313555
25	0x3e00957f	0.12557028
26	0x3ddc47c0	0.10755873
27	0x3dbcc78e	0.092177495
28	0x3de06a1d	0.109577395
29	0x3d4b0760	0.04956758
30	0xbd271e53	-0.040800404
31	0xbd8d623f	-0.069035046
32	0xbca17bae	-0.019712295
33	0x3e43c876	0.19119439
34	0xbe4d586a	-0.20053259
35	0x3d855b2e	0.06511532
36	0x3c465385	0.012104874
37	0x3dc4232c	0.09577021
38	0x3def1ada	0.116750434
39	0xbc460f16	-0.012088558
40	0xbdc1f248	-0.094700396
41	0x3e222e8e	0.15838072
42	0x3e54d1f1	0.20783211
43	0x3db64602	0.08900072
44	0x3ddd1826	0.107956216
45	0x3e090f86	0.13384828
46	0xbe01042c	-0.12599248
47	0x3c33b3f7	0.0109682
48	0x3e2a2c43	0.16618447
49	0xbdc77fd8	-0.09741181
50	0x3d5c4579	0.05377719
51	0xbd8278d4	-0.063707024
52	0xbe59364c	-0.21212119
53	0xbdec2a6a	-0.11531527
54	0x3e2ca40f	0.16859458
55	0xbe0a4161	-0.13501503
56	0x3ac6525c	0.0015130746
57	0xbdbf8298	-0.09351081
58	0x3d5dbdaa	0.054135956
59	0xbdb39522	-0.08768679
60	0x3e2428bd	0.16031165
61	0xbe11cffb	-0.14239495
62	0x3c592e1d	0.013255623
63	0x3e17e106	0.14831933
64	0xbe2f8664	-0.1714111
65	0xbcc50033	-0.024047947
66	0x3e033d72	0.12816408
67	0xbc40c218	-0.011765026
68	0xbc1b868a	-0.009492526
69	0x3e1e02e6	0.15430793
70	0x3d500f12	0.050795622
71	0xbde8dd8a	-0.1137038
72	0xbd9784a9	-0.0739835
73	0x3ddb60e1	0.107118376
74	0x3e24163d	0.16024108
75	0x3d197231	0.037462417
76	0xbd91ce58	-0.07119435
77	0x3e02fddd	0.12792154
78	0x3dfac289	0.12244136
79	0x3cda1f3e	0.026626226
80	0x3dc216ac	0.094769806
81	0xbd6db6a0	-0.058035493
82	0xbe02a82f	-0.1275947
83	0x3dd32be4	0.10311106
84	0xbe44c11b	-0.19214289
85	0x3cf3ae2f	0.029746143
86	0xbe1d2d62	-0.15349343
87	0x3db1fcf3	0.08690824
88	0xbd30b3d6	-0.043140255
89	0x3e1dc09f	0.1540551
90	0x3dfba236	0.12286799
91	0xbdb5852a	-0.0886329
92	0x3dd55ee2	0.10418488
93	0x3dedbc56	0.11608188
94	0xbdee0ad6	-0.116231605
95	0xbd946a03	-0.07246783
96	0xbe12cd46	-0.14336118
97	0xbdb3ade8	-0.08773404
98	0xbe395beb	-0.1810147
99	0xbe320d50	-0.17387891
100	0xbdca4b6b	-0.09877666
101	0xbe1731a4	-0.1476503
102	0xbe169bbe	-0.14707848
103	0xbc9aef40	-0.018912911
104	0xbe115b95	-0.14195092
105	0xbe01b5ff	-0.12667082
106	0x3db221a2	0.08697821
107	0xbe47649d	-0.19471975
108	0x3e0e84e1	0.13917877
109	0x3c20195f	0.009771674
110	0xbd075d47	-0.03304794
111	0xbdc3f229	-0.09567673
112	0xbe101211	-0.14069392
113	0x3dbb26a4	0.091382295
114	0xbd464242	-0.048403032
115	0x3d8a58c6	0.067552134
116	0x3d0f1c57	0.034939136
117	0xbcd710cd	-0.026253128
118	0xbe27d6f3	-0.1639059
119	0xbe23af78	-0.15984905
120	0x3d7ccdba	0.061719634
121	0x3e0d07ac	0.13772458
122	0x3cbb5381	0.022866966
123	0x3dd525d9	0.104076095
124	0xbe392f62	-0.18084481
125	0xbd60e1f8	-0.054903
126	0x3ddb0470	0.10694206
127	0x3dc742a6	0.09729509
128	0x3e66eec3	0.22552018
129	0xbe4820a4	-0.19543701
130	0x3ddc374b	0.10752734
131	0x3e16175d	0.1465735
132	0x3dfaee87	0.12252527
133	0xbd773e76	-0.0603623
134	0x3e2b0261	0.16700126
135	0x3c2c984b	0.010534356
136	0xbcd4a9b3	-0.025959825
137	0xbe154217	-0.14575993
138	0xbdc0beaf	-0.0941137
139	0x3dfaf1f9	0.12253184
140	0x3d33ab1e	0.043864362
141	0xbdb1e76a	-0.08686717
142	0x3c411465	0.011784648
143	0x3add85e2	0.0016900862
144	0x3e0f884b	0.14016835
145	0x3ca23278	0.019799456
146	0xbe0c8e63	-0.13726191
147	0x3d819211	0.06326688
148	0xbe163113	-0.14667158
149	0xbd8209aa	-0.063494995
150	0x3e110d56	0.14165244
151	0xbbfa2464	-0.0076337326
152	0x3e172712	0.14760998
153	0x3e1d2fdf	0.15350293
154	0x3dcd0597	0.10010832
155	0xbe49ad80	-0.19695091
156	0xbe080427	-0.13282834
157	0xbe1eb787	-0.15499698
158	0x3e308fb1	0.17242314
159	0x3e0653ce	0.13117906
160	0x3d03fa26	0.032220982
161	0xbcec7958	-0.028866455
162	0x3ce160a5	0.027511904
163	0x3e00882d	0.12551947
164	0x3e2d769e	0.1693978
165	0xbddd419c	-0.108035296
166	0x3d98fae9	0.07469732
167	0x3de883ee	0.113532886
168	0x39c80cee	0.00038156606
169	0xbcb3fc99	-0.021971034
170	0x3c017e48	0.007903643
171	0xbe1c9d63	-0.15294413
172	0xbdc870fa	-0.097871736
173	0xbdd8ae18	-0.10580081
174	0xbd460cd7	-0.04835209
175	0xbd1f8e89	-0.03895429
176	0x3d7b9373	0.061419915
177	0x3d866ce3	0.06563737
178	0x3daa6c60	0.08321452
179	0xbdb6b220	-0.089206934
180	0x3d15a7d0	0.03653699
181	0x3d0a700f	0.033798274
182	0x3bad4e86	0.0052889017
183	0x3e2fd8bf	0.17172526
184	0x3e107552	0.14107254
185	0xbd9e3491	-0.0772487
186	0x3e057889	0.13034262
187	0xbc0c0a19	-0.008547329
188	0xbdd55618	-0.10416812
189	0xbdbe94cf	-0.09305727
190	0xbd6d2884	-0.057899967
191	0x3d7b8a3f	0.06141114
192	0x3d32edf5	0.043683965
193	0xbcb33405	-0.02187539
194	0xbe0c162f	-0.13680337
195	0xbc08d012	-0.008350389
196	0xbe312def	-0.17302679
197	0xbda228ac	-0.07917914
198	0x3dc56274	0.09637919
199	0x3df65ddb	0.1202962
200	0xbd62ddb5	-0.055387218
201	0x3d86c144	0.06579831
202	0x3d8dbcb2	0.069207564
203	0x3ac820b6	0.0015268538
204	0x3d99d29e	0.07510875
205	0xbda02adb	-0.07820674
206	0x3dd3569a	0.10319252
207	0xbd1af687	-0.037832763
208	0x3d277717	0.040885057
209	0xbdcce4e0	-0.10004592
210	0xbe325784	-0.17416197
211	0x3e24d32a	0.16096178
212	0x3e23d41d	0.15998884
213	0x3e20d34f	0.15705608
214	0x3cd66032	0.026168916
215	0x3cc76d1d	0.024344021
216	0xbe159dd3	-0.14610986
217	0xbe13ffa5	-0.1445299
218	0x3dd4221c	0.10358068
219	0xbe1adca1	-0.15123226
220	0xbdc33b1b	-0.09532758
221	0xbd823a44	-0.063587695
222	0xbe255c9d	-0.1614861
223	0x3e0a476d	0.1350381
224	0x3d70bd20	0.058774114
225	0xbda71d61	-0.081599005
226	0x3dbda724	0.09260395
227	0x3d4ba5bf	0.049718615
228	0x3ce782cd	0.028260613
229	0xbe0adff9	-0.13562001
230	0xbe359adf	-0.1773486
231	0x3e17557f	0.14778708
232	0x3dcb5e94	0.09930149
233	0xbe04bdd7	-0.12963043
234	0x3d2b43ba	0.041812636
235	0xbd50544a	-0.050861634
236	0x3dd1fa3e	0.10252808
237	0xbd5d9c32	-0.054104038
238	0x3d246500	0.040135384
239	0xbd175090	-0.036942065
240	0xbd6d15a8	-0.05788198
241	0x3e0f1a8b	0.13974969
242	0x3e0d4f64	0.13799816
243	0xbcf51d94	-0.02992133
244	0xbd956046	-0.07293753
245	0xbc863738	-0.016383752
246	0xbe18adf8	-0.14910114
247	0xbd1a027f	-0.037600037
248	0xbdf8b6d8	-0.1214425
249	0xbe19c50c	-0.15016574
250	0xbe2f1d48	-0.17101014
251	0x3e116af1	0.14200951
252	0xbcb939cc	-0.022610568
253	0xbdf3a3a8	-0.11896449
254	0x3de76b34	0.11299744
255	0xbe189cdd	-0.14903589

sequential_3/dense_7/MatMul f4 [1, 128]
0	0xbe53ab16	-0.20670733
1	0x3d474909	0.048653636
2	0x3e002345	0.12513454
3	0xbe33eb9e	-0.1757035
4	0xbe57ee0c	-0.21086901
5	0x3d9e01b5	0.07715169
6	0x3e8be489	0.27322796
7	0xbe6733dd	-0.22578378
8	0xbe4c6d41	-0.19963552
9	0x3e677022	0.22601369
10	0xbdc5e19c	-0.09662172
11	0x3e358306	0.17725763
12	0xbe1aaf8d	-0.1510603
13	0x3e3537f5	0.17697127
14	0x3c3fae60	0.011699289
15	0x3e43f882	0.19137767
16	0x3e879dd2	0.26487595
17	0x3dfa6c02	0.12227632
18	0x3ca10f57	0.019660635
19	0x3dde76fd	0.10862539
20	0x3e0e9899	0.13925399
21	0xbe07e304	-0.13270193
22	0xbe0d1fdc	-0.13781685
23	0xbe555a87	-0.20835315
24	0xbe0570ce	-0.13031313
25	0xbdb5a938	-0.088701665
26	0xbe6bb8d4	-0.23019725
27	0xbe4f454f	-0.20241283
28	0xbe3046d5	-0.1721452
29	0xbe015bfd	-0.12632747
30	0x3e59906e	0.21246502
31	0x3e14b686	0.14522752
32	0xbe3da1f8	-0.18518817
33	0xbdaca48c	-0.08429822
34	0xbe3dba40	-0.1852808
35	0x3e4c5f4c	0.19958228
36	0xbe3072d0	-0.17231297
37	0xbd1aa330	-0.037753284
38	0x3e839658	0.2570064
39	0xbe406971	-0.18790223
40	0xbe02323d	-0.12714477
41	0x3e55eae2	0.20890382
42	0xbc3f8758	-0.011689983
43	0x3e8bf4c8	0.2733519
44	0xbe0da664	-0.13833004
45	0xbdf73555	-0.12070719
46	0x3e3aa6d5	0.18227704
47	0xbdfea60f	-0.12434017
48	0x3e53cf6b	0.20684592
49	0xbde7952f	-0.113077514
50	0xbe33e07d	-0.17566104
51	0xbe08aeef	-0.13347982
52	0xbdf7a031	-0.12091101
53	0xbdd66136	-0.1046776
54	0xbdae3275	-0.08505718
55	0x3e4d3f9a	0.20043793
56	0x3e230e39	0.15923394
57	0x3cab2f4f	0.020896582
58	0x3e1171fd	0.1420364
59	0xbe455309	-0.19269957
60	0x3e330d07	0.17485438
61	0x3d73c8c5	0.05951764
62	0x3e9fbee8	0.31200337
63	0x3e86bd77	0.26316425
64	0xbe387b67	-0.18015824
65	0x3e9a76b9	0.30168703
66	0x3e0a36b4	0.1349743
67	0x3e8999f4	0.2687527
68	0xbe01aa66	-0.12662658
69	0x3e91b711	0.2845998
70	0xbde7ae43	-0.11312535
71	0x3e3d66e0	0.18496275
72	0x3de7e569	0.113230534
73	0x3e335436	0.17512593
74	0xbe354054	-0.1770032
75	0xbe08f966	-0.13376388
76	0xbe2d2b3e	-0.16911027
77	0xbe161198	-0.14655149
78	0x3e01e3aa	0.12684503
79	0xbdbf1da5	-0.09331826
80	0xbe1b73a0	-0.15180826
81	0xbcd168b2	-0.025562618
82	0xbe852ffe	-0.26013178
83	0x3de62a4c	0.11238536
84	0xbdfffe31	-0.12499655
85	0x3e452820	0.19253588
86	0xbe764a2c	-0.24051732
87	0x3dba85f5	0.091075815
88	0xbe4e8b33	-0.20170288
89	0xbc178670	-0.009248361
90	0x3e3523b3	0.176894
91	0x3e2458a2	0.16049436
92	0xbdc6f499	-0.09714622
93	0xbdadcb36	-0.08486025
94	0xbe308b70	-0.17240691
95	0xbe50a44b	-0.20375173
96	0x3c094fd4	0.008380849
97	0xbe0bff48	-0.13671601
98	0xbe10e3a2	-0.14149335
99	0xbda16b31	-0.07881773
100	0xbd4ed2e5	-0.050494093
101	0xbd821935	-0.06352464
102	0x3e36633a	0.1781129
103	0xbd7d1336	-0.0617859
104	0x3e5623e2	0.20912126
105	0x3e4b0468	0.198259
106	0x3e6c022f	0.23047708
107	0xbe03318e	-0.12811872
108	0x3d23c038	0.039978236
109	0x3dfe99b2	0.12431659
110	0xbd1db2c0	-0.038500547
111	0xbe0b4c20	-0.13603258
112	0x3c7ed6be	0.015554128
113	0xbe1cc9ee	-0.15311405
114	0x3da34369	0.07971842
115	0xbc6e8cc8	-0.014559932
116	0x3e39d130	0.18146205
117	0xbe32b3aa	-0.17451349
118	0x3e80a803	0.25128183
119	0xbd8dfe78	-0.06933302
120	0x3e159ed2	0.14611366
121	0xbe754ce8	-0.23955119
122	0x3e272554	0.16322833
123	0x3e58cc01	0.21171571
124	0x3e96a81e	0.29425138
125	0x3dddc627	0.1082881
126	0xbe321729	-0.17391647
127	0xbe5bf69d	-0.21480794
